Grace/TrainData.pth (torch, 20951 bytes, 6 tensors)

l1.weight f4 [8, 331]
00000000: b88e 7b3f 1050 bc3e 707a 2440 2819 90bf
00000010: 11ef 89be 19ea fbbf 6109 76be 6658 433f
00000020: cce1 a83f 5320 a33d a98b 99be 97b2 ff3e
00000030: 1847 d4bd 9c03 edbe 8894 bebf 3149 67be
00000040: 36e3 d43e ce51 193f 84e7 0e3c b753 38be
00000050: 7caa c4bd 0acc eb3e 37d9 67be 852a 94bf
00000060: 8f5f e5bc b934 993d 4f9b 80bd 5e74 94bf
00000070: 8362 94bf 9012 4ebe 11e3 5e3d 0b99 63be
00000080: 154e a2be 62b3 3840 e5a3 7b3d 6181 95be
00000090: e727 5fbf bf66 c6be e7bb 253f 05c0 c3be
000000a0: 8877 62be 5190 ca3f 0af5 4ebd ef2d 28be
000000b0: e2ef 6a3e 7387 dcbd 2ac5 193e 167b 8bbd
000000c0: eb31 7fbe 6b33 eabe 263a 8f3e 14c4 f63e
000000d0: 6827 b33f 91b0 7bbe 692f 02c0 e1fc 3340
000000e0: 6b54 dc3f b8c9 dc3f a988 9340 9127 58bf
000000f0: f9dd 143f d6b6 ab3f 7414 663f 5942 4e3f
00000100: e29f edbe c661 7a3f 5a49 3640 2c8e 7040
00000110: 35ed aebe ae88 fe3e 2905 f3be e712 b23e
00000120: 136b d4bf a65e 973f 42c9 80bf 43e4 963f
00000130: 67d1 d5bf 5a9b 8d40 a61c 8b3f 5673 bcbe
00000140: c289 94bf 40ba 42c0 55df 7d3f 4def b9be
00000150: 0e63 d23f 93dd 1e40 c65c 0f40 e0d4 0abc
00000160: dba6 48bf 371a eebe cb41 533f cbc5 ae3f
00000170: 858f 1b3f ac38 ec3e e2ab ae3f 8d52 58bf
00000180: bebb 40bf 064c 0ec0 73c2 efbf 9756 0c3e
00000190: a3bf b2bd f10d 34bf 2177 3b3d 0f11 b73f
000001a0: 7494 bdbf 3723 1bbf 7fac b8bf 3a9e a23e
000001b0: a273 1ebe 3ac2 823e c41f 0bbf f180 db3f
000001c0: d251 763f 6401 7ebe 79c3 0f3f 9b2c 22be
000001d0: d9fe 5d3f e17c 433e 7403 553f d438 27c0
000001e0: ee6b 943e f867 963e 371b 7c3f 759e f83f
000001f0: 4626 59be 1fbb dcbe 06ed 96be 6593 98be
00000200: 012b c1be 268e 2e40 bd0c 763f 7f91 9b3f
00000210: 1d28 38bf 96d5 6240 d1cd 903e 283d 0fbe
00000220: 6511 093e f1de 803f 1a47 d5be fff5 7b3f
00000230: 83c5 f03f 0dd9 f9be 6b43 c2bf 5fb7 583f
00000240: c61c b0be 82d1 4abf d7eb a53e aa54 f63d
00000250: e67f 19be 6c47 b3be d6ff a7bd 047f 3c3f
00000260: 2b7d 3140 4682 733d 438e 633e d97d d83f
00000270: 9913 32c0 d908 cfbe e8a4 433f 2985 fabe
00000280: c92e fabe a7da 26bd 91a2 a93f 5e3d cabd
00000290: 8c6a c3bc 7764 a73e 6d47 2d3f a438 3cbe
000002a0: b42c 6f3e 8a5d 71c0 5765 f83e d700 0cbe
000002b0: cf8c 9fbf 78b7 3c40 eed2 38bf d4cf 3fbf
000002c0: b7fa 813e a2b3 d7be f874 e63d 4423 87be
000002d0: 33f4 903f 1746 753e c6a7 d6bf 1dee dfbd
000002e0: 48b0 8ebd 10fe 403f b363 ad3e e650 913f
000002f0: df4d 65c0 232c 84bd 0be7 813f 2021 c3be
00000300: 1cd1 263f b8d0 683f 23ad 603e 800e cc3f
00000310: 63f9 69be 5277 893f be53 bdbf b6fc 5a3f
00000320: 0686 d1be 4804 0140 4ee4 81be 6b4b ed3e
00000330: 6a59 5140 dead d13c dddd 4bbf ec41 a73d
00000340: d964 a63f 509f a2be 0d84 67bd e126 99bd
00000350: f557 aa3e 1355 9a3e b1bb bebe b0ce 9d40
00000360: 1f1e 3340 6369 13bf 09d1 68bf 08b7 863e
00000370: efe2 993e eaec c0be d8f6 e63f 1e56 9b3f
00000380: 7c09 debd 4936 acbf 41df 9cbe e249 3b3e
00000390: f241 1ec0 ff08 7ebf 2e55 f8bf f19e 833e
000003a0: 3d1e 9fbd 1ff9 3440 bf1a 24bf 07fa 7cbe
000003b0: db85 bfbe f882 56bf 8280 9dbf 55b5 41bd
000003c0: 1738 adbe eadf dcbe f0b2 97bf a075 0cbb
000003d0: 49f1 2440 08ec 913f 0b72 1b3f 40f8 be3e
000003e0: e786 a5be 2af7 c03e 2993 fabf 8ca2 a63f
000003f0: 36e2 e9be 4634 993f de53 0b3f 1840 b8bf
0.98264647 0.36779833 2.569973 -1.1257677 -0.26940206 -1.9680816 -0.24027015 0.7630676
1.3193908 0.0796515 -0.29989365 0.4994094 -0.103651226 -0.46291816 -1.4889078 -0.22586514
0.41579598 0.5989045 0.00872219 -0.18000685 -0.0960283 0.46054107 -0.22641455 -1.1575476
-0.027999667 0.07480759 -0.06279623 -1.1598012 -1.1592563 -0.20124269 0.054415766 -0.2222635
-0.31700197 2.8859487 0.0614356 -0.2920027 -0.8717026 -0.38750264 0.6473984 -0.38232437
-0.2211591 1.5825292 -0.050526656 -0.16423772 0.2294307 -0.107680224 0.15016618 -0.06810586
-0.24921386 -0.45742354 0.2797405 0.4819647 1.3996401 -0.24579073 -2.0341437 2.8123095
1.7213262 1.724906 4.610432 -0.84435374 0.58151203 1.3415172 0.8987496 0.8056999
-0.46411043 0.9780544 2.848227 3.7586775 -0.3416535 0.49713653 -0.47464874 0.34780046
-1.6595176 1.182576 -1.0061419 1.178841 -1.670453 4.425214 1.0868118 -0.36806744
-1.160454 -3.0426178 0.991689 -0.36315385 1.6436479 2.4822738 2.2400374 -0.008473605
-0.783796 -0.46504375 0.8252227 1.3654112 0.6076587 0.46136987 1.3646204 -0.8450096
-0.7528647 -2.22339 -1.8731216 0.13704906 -0.08727958 -0.7033377 0.045767907 1.4302081
-1.4810929 -0.6060061 -1.4427642 0.31761342 -0.15473798 0.25538808 -0.54345345 1.7148725
0.962186 -0.24805218 0.5615764 -0.15837328 0.8671699 0.19090606 0.83208394 -2.6128435
0.28988594 0.29376197 0.98479027 1.9423357 -0.21206006 -0.43111512 -0.2947771 -0.29799953
-0.37728122 2.727426 0.9611319 1.2153777 -0.7193621 3.5442863 0.28282025 -0.13988173
0.13385542 1.0068036 -0.4165581 0.98422235 1.8810276 -0.4879841 -1.5176824 0.846548
-0.34396952 -0.79225934 0.32406494 0.12027867 -0.14990196 -0.35015428 -0.08203094 0.7363131
2.7732646 0.05945041 0.22222237 1.6913406 -2.7824461 -0.40436438 0.764235 -0.48929718
-0.4886382 -0.040735867 1.3252736 -0.09874986 -0.023854516 0.32693836 0.6768711 -0.18380982
0.23356897 -3.7713342 0.48514816 -0.13672195 -1.2464846 2.948698 -0.72196853 -0.74926496
0.25386593 -0.42129236 0.11252779 -0.26394093 1.1324524 0.23952518 -1.676995 -0.109340884
-0.06967217 0.7538767 0.33865127 1.1352813 -3.5828779 -0.06453731 1.0148634 -0.3811121
0.65162826 0.9094348 0.21941046 1.5941925 -0.2284904 1.0739539 -1.4791181 0.85541856
-0.40922564 2.0158863 -0.25369495 0.46346602 3.2710824 0.025595602 -0.7963541 0.081668705
1.2999526 -0.3176217 -0.056522418 -0.07478119 0.3327023 0.3014303 -0.37252572 4.9314804
2.7987134 -0.5758268 -0.9094396 0.26311517 0.3005595 -0.3768075 1.8044081 1.2135656
-0.10841653 -1.3454067 -0.3063908 0.18289903 -2.472775 -0.99232477 -1.9400995 0.257072
-0.07769439 2.8277051 -0.6410331 -0.24704753 -0.3740681 -0.8379359 -1.2304842 -0.047292072
-0.33831856 -0.43139583 -1.1851482 -0.0021432415 2.5772269 1.1400156 0.6072089 0.37298775
-0.32329485 0.3768857 -1.957616 1.3018355 -0.45680398 1.1969078 0.54424846 -1.439456

l1.bias f4 [8]
00000000: 11e7 873f d14e b23f ed92 2b3f a5b8 6c3f
00000010: 856f ee3f c68f 753f ffc5 433f 3005 613f
1.0617391 1.3930303 0.67021066 0.92469245 1.8627783 0.95922506 0.76473993 0.8789854

l2.weight f4 [8, 8]
00000000: 4f72 4abf 39ee 1540 67ef 15c0 961d 7fbf
00000010: 0078 a33e 899e 2b40 a7d6 1a3f aa09 a03f
00000020: 7000 c13f 2c6f b4bd 2474 493f 3afd 92bc
00000030: 3549 b3bf 614b cd3f 82e3 1340 bb67 723f
00000040: 39c3 03c0 4051 b23f a5c9 85bf f1a9 4940
00000050: 19fb 343d 3a02 10bf 03df 043f a591 1b40
00000060: ac14 0a40 198a a9bf 6fe4 0740 b17b ea3f
00000070: b971 0840 1a1d cfbf 30d6 b63f 1160 74bf
00000080: 8097 2f40 f142 ba3f aa8e c03e 9e0f f43e
00000090: 5806 6440 e132 3bbe c7d3 0dc0 1d87 30bf
000000a0: f9b2 9abe 5969 e1bf d620 a4bf c80d 0240
000000b0: 2e2f ab3f f9b9 983f 9a40 e33f 2f4c 893e
000000c0: 490f d33f 893b d03f f724 4140 e09f 7dbe
000000d0: 2232 96bf 6d4d fc3e 45b5 0f3f 1d49 5e3f
000000e0: 0e67 81bd c363 103e 0992 91be a6f0 403d
000000f0: ecac 8abe 9c0f b13d 53fa 13be 998a b0be
-0.7908067 2.342665 -2.342737 -0.9965452 0.3192749 2.6815512 0.60483783 1.2502949
1.5078259 -0.08810267 0.7869284 -0.017943013 -1.4006716 1.6038629 2.310761 0.9468953
-2.0587904 1.3931046 -1.0452162 3.1509974 0.044184778 -0.562534 0.5190279 2.4307644
2.1575117 -1.3245269 2.1233175 1.8318998 2.131941 -1.6180756 1.4284115 -0.95459086
2.7436218 1.4551679 0.37608844 0.47668165 3.5628872 -0.18281128 -2.2160509 -0.68956167
-0.3021467 -1.7610275 -1.2822521 2.0320911 1.3373773 1.1931754 1.775409 0.26815936
1.648904 1.6268169 3.0178812 -0.24768019 -1.1734049 0.4927782 0.5613597 0.8683031
-0.06318484 0.14100556 -0.28431728 0.0471045 -0.27085054 0.086455554 -0.1445096 -0.34480742

l2.bias f4 [8]
00000000: 1c8f bd3f 32df b2be c3b8 dc3e 27a5 693f
00000010: 1e6c b93f 0fde 88bf 8d45 50bf 096e cfbe
1.4809299 -0.3493591 0.43109712 0.9126763 1.448612 -1.0692767 -0.81356126 -0.40513638

l3.weight f4 [70, 8]
00000000: 42eb 553e 4569 cdbe 0776 a43f 0172 64c0
00000010: 7fb2 87c0 3702 863f eff1 f1bf 66ed 383e
00000020: 3901 a1be c09c 14be d506 ce3e 448c a2be
00000030: d497 06bf 0cb5 9fbe 4554 8fbe 5d17 4bbe
00000040: d46b a5c0 ec37 f6bc e4fe 223f eefb 9d3e
00000050: 4768 6fc0 437d 103f cc7e ddbf fe5f 7b3e
00000060: 52f7 f5bf e49a e63e 59d1 af3e d68d ffbd
00000070: 2f88 aac0 58e6 20c0 0dc2 973f c4ab b73d
00000080: ef97 5bbf f5f1 7f3f 9cee 97c0 e6c8 9e3f
00000090: 1a1d 80c0 dfd0 00c0 4e85 643f 1c5b b93d
000000a0: a316 cac0 5fca 04c1 1857 08c1 0a55 9d3c
000000b0: bfcf 2b3f 7930 04be af93 9bbd c026 8dbc
000000c0: b12d f0c0 1bc2 7c3f 94bf efbf 2bde f63d
000000d0: acbb 8fbe 9009 5fbf 8ebb c13f ced3 6a3e
000000e0: 8df2 cfc0 65ba 32bd 9a67 18c1 af4d 853f
000000f0: b3ed c4be 996d 093f 4282 f5be da30 383e
00000100: 3517 06c1 200b 46c0 c204 b9c0 a2b2 213f
00000110: 34cf 1b3f 5db9 113f bad1 dec0 7f6a a83e
00000120: 91f4 d2c0 270f 93bf 8d53 b0c0 7374 353f
00000130: b6f3 dfbd f586 ed3f a78c 03c0 5d68 9c3e
00000140: 5803 a9bf e27c 08c0 971d 3d3d 847f 9d3e
00000150: 607e a33e f067 73ba e69f 05c0 8100 92be
00000160: 4823 dac0 dee5 70be f58a abc0 0782 073d
00000170: 5336 443e 83a2 69be 8a28 a23f b826 7fbd
00000180: 5b36 f1bf 38d1 5b3f fd2f 09c1 d7f1 93be
00000190: 4a22 613d 4d75 18bf f898 2c3f 4ab5 263e
000001a0: 9c38 dc3f 336b 8fc0 13a1 38c0 de64 93c0
000001b0: bb53 473f 958d e8bf 3d17 06c0 00ff 8f3d
000001c0: ca58 c4be e3bd dbc0 3729 d33f 69aa e9bf
000001d0: d0ff 1ebf ddaa 3b3e 9de4 7ec0 1c7d 55be
000001e0: 0ec4 ae3e ea0a aa3e 9e74 24bf abd5 2abf
000001f0: e658 c5bf 835e 42bc 221c 37bd 0efe 70be
00000200: e019 27bf fe75 5ac0 4129 f23f 54de d3bf
00000210: 318b 69bf bcbd c8bf eba5 4dbf 6d74 57be
00000220: 5398 823f 32ae 11be 9474 a1c0 0aac 86c0
00000230: 21f6 913f 169c 05c0 213b a9bf fff8 d13d
00000240: f1a7 4c3f 2df2 aac0 4a86 023f e90d 30bf
00000250: 4e3c de3d 45a2 c1bf 7c7c f7bf b279 353e
00000260: ade4 ab3f 4ec0 b6be 4d69 c1bf 224a 29c0
00000270: eef9 83bf 44cb 5e3f 9a93 29c0 fd83 6e3d
00000280: b636 93bf 635f c03e ac47 dbbf 22d6 913f
00000290: 466a 80bf c908 c6bf b072 723f 66ca 3f3e
000002a0: 1c75 493f 5da6 253e 91a1 1a3f 642b 11c1
000002b0: 279e 7bbf b6b3 fec0 f8ee 54be c5e5 a73e
000002c0: 7369 11bf 7764 2fbf 1ef9 ab3f fc39 bfbf
000002d0: 6311 4bc0 65ea 4fbe 6efd 773e 9c24 cbbd
000002e0: e10a 13bf 1511 66be cd70 fdbf 30fc 2f3f
000002f0: 5bb1 6a3f 9ef9 3fc1 486c 303f e9e8 29bd
00000300: a34d 53c0 5f24 913f cc2d cfc0 c3fe 6f3f
00000310: 003f 35bf 52c4 a2c0 ec6c 903f e471 c4bd
00000320: b902 0a3d 5608 943e b0bb cfc0 e1c7 ad3e
00000330: ef1e 88bf 7afb 943f db49 96bf 60bd 5d3e
00000340: 641d 4d3f aa08 2d3e 7d67 9cbe 8e4f dac0
00000350: 7f1b 09c1 7d4b a33e 83af 2dbf 037d 05be
00000360: 6c51 a7c0 1f60 9bbe 3d1b 183f df48 a53e
00000370: 4e8a 85bf 5550 bcbe e96a 643f e2ba 273e
00000380: 7bb6 7bc0 524f af3f cc17 4ec0 1220 1f3f
00000390: 5df7 5bbf ebf0 933f e811 bd3e 4463 df3d
000003a0: bf5b 0f3f 76f3 6b3f eeab 19c0 1258 06c1
000003b0: b0d6 84c0 fb0f 27bf c901 dcbd b846 45be
000003c0: 3032 18c0 5cde b03f 7a5d b3c0 37df ae3f
000003d0: a895 b7c0 5219 193f 685b 513e 42f5 163e
000003e0: d346 48c0 df4b 693f 0650 1dc0 83ce 1c3d
000003f0: 9de1 07be 4f67 c43f d84e 3ac0 e9f7 933e
0.20890525 -0.40119377 1.2848519 -3.5694582 -4.240539 1.0469426 -1.8901957 0.1805931
-0.31446245 -0.1451292 0.40239587 -0.3174764 -0.5257542 -0.31192815 -0.2799398 -0.19833131
-5.1694126 -0.030055963 0.6367018 0.3085627 -3.7407396 0.56441134 -1.730432 0.24548337
-1.9216101 0.45040047 0.34339407 -0.12478225 -5.329124 -2.514059 1.1856095 0.089683086
-0.8577871 0.9997857 -4.747877 1.2405059 -4.0035524 -2.0127485 0.89265907 0.09050581
-6.3152633 -8.299407 -8.521263 0.019205589 0.6711387 -0.12909116 -0.07596528 -0.017230392
-7.5055776 0.9873368 -1.873034 0.12054094 -0.2807287 -0.87123966 1.5135362 0.2293236
-6.4983582 -0.04363479 -9.525293 1.0414332 -0.384626 0.5368286 -0.4795094 0.17987385
-8.380666 -3.094429 -5.781831 0.631632 0.6086304 0.56923467 -6.9631014 0.3289375
-6.5923543 -1.1488999 -5.510199 0.7088081 -0.10935156 1.8556811 -2.0554597 0.30548373
-1.3204145 -2.1326222 0.046170797 0.3076135 0.31932354 -0.0009285202 -2.0878844 -0.2851601
-6.816807 -0.23525187 -5.3607125 0.033082988 0.19161348 -0.228159 1.2668622 -0.062292784
-1.8844713 0.8586612 -8.574216 -0.28895447 0.05496434 -0.59553987 0.6742091 0.16280094
1.7204776 -4.481836 -2.8848312 -4.606063 0.7786214 -1.8168207 -2.0951684 0.07031059
-0.3834899 -6.8669295 1.6496953 -1.825513 -0.6210909 0.18326898 -3.9827034 -0.20848507
0.34133953 0.33211452 -0.64240444 -0.6673228 -1.5417755 -0.011863354 -0.044704564 -0.23534414
-0.6527386 -3.4134517 1.891884 -1.6552224 -0.91228014 -1.5682902 -0.80331296 -0.21040507
1.0202736 -0.14226606 -5.0454807 -4.208501 1.1403238 -2.0876517 -1.322117 0.1025257
0.7994376 -5.3420625 0.5098616 -0.68771225 0.10851346 -1.5127646 -1.9334865 0.17722204
1.3429161 -0.35693592 -1.511026 -2.6451497 -1.0310647 0.8702891 -2.649634 0.058231343
-1.1501071 0.37572774 -1.7131248 1.1393473 -1.0032432 -1.5471431 0.9470625 0.18729553
0.7869432 0.16176744 0.6040278 -9.073093 -0.98288196 -7.9594374 -0.20794284 0.32792488
-0.5680153 -0.6851267 1.34354 -1.493957 -3.1729362 -0.20304258 0.2421777 -0.09919092
-0.57438475 -0.22467454 -1.9800049 0.6874418 0.9167687 -11.998442 0.68915224 -0.041481886
-3.3016136 1.1339225 -6.4743404 0.9374811 -0.70799255 -5.086465 1.128324 -0.095920354
0.033694003 0.2891261 -6.491661 0.33941558 -1.063444 1.1639245 -1.1741289 0.21654272
0.8012297 0.16897836 -0.30547705 -6.8222113 -8.569213 0.3189353 -0.67845935 -0.1303597
-5.228689 -0.30346772 0.5941656 0.3228216 -1.0432832 -0.36780038 0.8922563 0.16379884
-3.9330127 1.3696082 -3.2202024 0.6215831 -0.8592432 1.1557897 0.36927724 0.10907605
0.5599937 0.92168367 -2.4011188 -8.396502 -4.151207 -0.6525876 -0.10742528 -0.19265258
-2.3780632 1.3817859 -5.6051607 1.366187 -5.7370186 0.5980426 0.20445025 0.14741996
-3.1293228 0.91131395 -2.4580092 0.038282882 -0.13269658 1.5344027 -2.9110622 0.28900078

l3.bias f4 [70]
00000000: 9cc6 a1bf 0e22 36bf b536 92bd 3c3f 2cc0
00000010: 582f 3cc0 fc37 e7bf 5093 3cc0 f6bd d2bf
00000020: 243c 4dbf 55a5 21c0 6e16 a53c 017d 71c0
00000030: 4c95 71c0 b96b cbbe ee41 f9bf 0a1f c6bc
00000040: f3c7 c3be 0b31 a03f ec2f 9a3f f12c 41be
00000050: ef6f 5dc0 3f90 923e d1be 94c0 ae8a 943d
00000060: ef00 cabd 6340 903e 2846 87bf f544 fcbe
00000070: 3f92 a73f e82b b4bf 2131 42bf f5cf 36c0
00000080: d2f5 e23f 8bff c1bf 9a8c 5abe fc00 96be
00000090: b471 9dbf c5cd 433e 702b 86be f86a adbf
000000a0: 11ee ad3e 8783 3abf bd56 7c3f 2aa9 97be
000000b0: 8cf2 40bf e6b0 403e 73d2 51bf 80e5 173f
000000c0: 961a dbbf d536 e1bf cd45 34c0 ac59 81be
000000d0: e6dc 8dbe de29 afbf e19a 4fbf 0b83 60c0
000000e0: fbba 44c0 2cc6 4dbf ed18 d73d 2faa 4f3d
000000f0: 672c 61bf 74e1 c5be a7e7 a5bf 75ef d9bf
00000100: 6130 023d 5e60 c6bf fb94 13c0 63fb 6c3d
00000110: c8e4 65be c2c9 54be
-1.2638736 -0.71145713 -0.07139341 -2.6913595 -2.9403896 -1.806396 -2.9464912 -1.6464221
-0.8016989 -2.525716 0.020152297 -3.7732546 -3.7747374 -0.39730623 -1.9473245 -0.024184722
-0.38238487 1.2514967 1.2045875 -0.188648 -3.459957 0.28625676 -4.648293 0.072530136
-0.09863459 0.28174123 -1.0568285 -0.4927136 1.3091506 -1.4075899 -0.75856215 -2.8564427
1.7731268 -1.515611 -0.21342698 -0.29297626 -1.2300324 0.19121464 -0.26205015 -1.3548269
0.33970693 -0.72856945 0.9856985 -0.2962125 -0.753701 0.18817481 -0.81961745 0.59334564
-1.7117488 -1.7594858 -2.8167603 -0.25263727 -0.27707595 -1.3684652 -0.810957 -3.5079982
-3.0739124 -0.8038051 0.10502801 0.05069941 -0.8795838 -0.3864857 -1.296132 -1.7026201
0.03178442 -1.5498159 -2.305968 0.05785693 -0.22450554 -0.2078009
