Grace/TrainData.pth (torch, 19735 bytes, 6 tensors)

l1.weight f4 [8, 317]
0	0x4007f816	2.124517
1	0x3f108f8f	0.56469053
2	0xbf77d663	-0.96811503
3	0xbb868ea0	-0.0041063577
4	0x4005f0a0	2.0928116
5	0xbe602fe8	-0.21893275
6	0xbe5f1428	-0.21785033
7	0x3e88a439	0.26687792
8	0xbd8bfb2c	-0.068350166
9	0x3dfb04d6	0.12256782
10	0xbf45fee0	-0.77342033
11	0x3d086463	0.03329886
12	0xbd9a8f91	-0.07546914
13	0xbeca82eb	-0.39553007
14	0xbf39aed8	-0.72532415
15	0xbe302acc	-0.17203826
16	0xbdea14a4	-0.11429718
17	0xbd8be9d0	-0.068317056
18	0x3d64fef0	0.05590719
19	0xbe7cec8f	-0.24699615
20	0xbd0ac97b	-0.033883553
21	0x3e84bd7d	0.25925818
22	0xbe9c3194	-0.30506575
23	0xbf3d0f1f	-0.738512
24	0xbec71756	-0.3888499
25	0x3f14eec4	0.5817683
26	0xbf2fced3	-0.68674964
27	0xbf3b0416	-0.7305311
28	0xbf3c8cb4	-0.73652196
29	0xbeefacfe	-0.4681167
30	0x3d6dd316	0.058062635
31	0x3f010d16	0.5041059
32	0x3d07cb9a	0.033153154
33	0x3db5e631	0.08881796
34	0x3d2379b4	0.039910987
35	0xbf3d160d	-0.7386177
36	0x3ee079e7	0.43843004
37	0x3e4dd532	0.20100859
38	0x3f59378f	0.848504
39	0x3de54ba1	0.11196066
40	0xbe35a9bc	-0.1774053
41	0xbf73ab38	-0.95183134
42	0x3dfa1137	0.12210315
43	0x3edcbbbb	0.43111977
44	0x3d971bc8	0.07378346
45	0x3f01d240	0.5071144
46	0xbe0633a4	-0.13105637
47	0x3d54ed4a	0.05198411
48	0x3f279101	0.65455633
49	0x3f33d397	0.70244735
50	0x3fff2d7a	1.9935753
51	0x3e3b73e2	0.18305925
52	0x3e8e0d2b	0.2774442
53	0x4085b851	4.1787496
54	0x3feb0ff0	1.8364239
55	0x3fe688f5	1.8010546
56	0xbf90444b	-1.1270841
57	0xbf1feaa0	-0.62467384
58	0x3f122e00	0.5710144
59	0xbf06026f	-0.52347463
60	0x3f31179b	0.69176644
61	0x3e8251ba	0.25452977
62	0x3ee180d5	0.44043604
63	0x3eeaeaa8	0.45882154
64	0xbf8a9787	-1.0827492
65	0x3efc5589	0.49284008
66	0xbed103f7	-0.40823337
67	0x3f213c04	0.629822
68	0x3fdc2567	1.7198914
69	0x4029442b	2.6447856
70	0x3f4971a1	0.7868901
71	0x3fc90cd5	1.5707041
72	0x3f3bd45b	0.73370904
73	0x404e49b9	3.2232497
74	0xbc8eeb26	-0.017446112
75	0x3f5955b8	0.8489642
76	0x3e6b63bb	0.22987263
77	0xbf3d1bf9	-0.7387081
78	0xbe30c8d3	-0.17264108
79	0xbf4483c6	-0.7676357
80	0x407032ca	3.7531
81	0x4077ea74	3.873685
82	0x400d1144	2.2041788
83	0x3dbfeee5	0.093717374
84	0xbdf69649	-0.12040383
85	0x3e9b27a5	0.30303684
86	0x3ea7cfd9	0.32775763
87	0x40080dd3	2.1258438
88	0x3f681f31	0.90672594
89	0xbf7aeb72	-0.9801551
90	0x40091d51	2.1424143
91	0x3f8e5395	1.1119257
92	0xbf2534a6	-0.6453346
93	0xbde81229	-0.11331589
94	0x3ff5919d	1.9185063
95	0x3f46a6b5	0.77598125
96	0xbe6dac3d	-0.23210235
97	0x3ebdb6d6	0.37053555
98	0x3f29d7e1	0.6634503
99	0x3ded2ada	0.11580439
100	0xbf28b322	-0.65898335
101	0xbe9b3c5f	-0.30319497
102	0xbf12d8d4	-0.57362103
103	0x3f731e1d	0.94967824
104	0x3ef44407	0.4770815
105	0x400d6e1d	2.2098458
106	0xbe9edb44	-0.3102666
107	0x3fea2119	1.8291351
108	0xbf7bcd29	-0.98359925
109	0x3d8edd28	0.06975776
110	0xbea7ac11	-0.32748464
111	0x3ee48abf	0.44637105
112	0x3f61f2a1	0.8826085
113	0x3f4f69fa	0.8102108
114	0xbeebdb47	-0.46065733
115	0x3fa32c1c	1.2747836
116	0x3fa5e61d	1.296085
117	0x3fa306c5	1.2736441
118	0x3dc86564	0.09784964
119	0x3efe116e	0.49622673
120	0x3ed14d7b	0.40879425
121	0xbed194d9	-0.40933874
122	0xbf3e1019	-0.74243313
123	0xbf3df4a9	-0.74201447
124	0xbf384737	-0.71983665
125	0x3ea25908	0.3170855
126	0x3f0dedcf	0.5544099
127	0x3d8ed182	0.06973554
128	0xc0065d22	-2.0994344
129	0x3f4899fc	0.7835996
130	0x3ed4d5e8	0.41569448
131	0x3edde46a	0.4333833
132	0xbf939ac7	-1.1531609
133	0x3cc9d67d	0.024638409
134	0x3f7dd9c0	0.99160385
135	0x3fd5b63e	1.6696241
136	0xbedc8b9f	-0.43075272
137	0x3cdc0227	0.026856495
138	0x3fba9bd0	1.45788
139	0x40186d02	2.3816533
140	0x3f41642a	0.75543463
141	0x3f52f892	0.8241054
142	0xbe95a145	-0.292246
143	0x3f0c44ce	0.5479249
144	0xbeadc8ff	-0.3394241
145	0x3f90d7b6	1.131583
146	0xbf8ca5ee	-1.0988138
147	0x40109641	2.2591708
148	0x3dc97a92	0.098378316
149	0xbd3f764f	-0.046743687
150	0x3f07b256	0.53006494
151	0x3f0e0ef8	0.5549159
152	0x3f280d30	0.6564512
153	0x3b33c66d	0.0027431503
154	0xbd696409	-0.056980167
155	0xbcb03b4d	-0.021512652
156	0x3e64a9df	0.22330426
157	0xbe04b8cf	-0.12961124
158	0x3dc318d3	0.09526219
159	0x3fd8e107	1.6943673
160	0x3f871899	1.0554382
161	0x3efd2c6d	0.49447957
162	0x3ec9f078	0.39441276
163	0x4019d9ce	2.4039187
164	0xbf6a6593	-0.9156124
165	0x3f931241	1.1489946
166	0x3f6f69ca	0.93520796
167	0x3ee95b02	0.45577246
168	0x3c5930bf	0.013256251
169	0xbf0dbb27	-0.55363697
170	0x3e6a5230	0.22882915
171	0x3d9a9202	0.0754738
172	0xbe7f13cb	-0.24909894
173	0xbd846a58	-0.06465596
174	0x3eda6045	0.42651573
175	0x3f17fbe3	0.59368724
176	0xbe82e961	-0.2556868
177	0xbf6d0887	-0.92591137
178	0xbf1d84a7	-0.61530536
179	0xbfe3f836	-1.7810123
180	0xbf88c73a	-1.0685799
181	0xbf120bfe	-0.5704955
182	0x3ed04bdf	0.40682885
183	0x3d79cbf6	0.060985528
184	0x3efe6a27	0.49690363
185	0xbf8ce407	-1.1007088
186	0x3ed9c98e	0.42536587
187	0xbea9dc32	-0.33175808
188	0xbee43b21	-0.44576362
189	0xbf9a8773	-1.2072586
190	0x3f9e9ede	1.2392232
191	0x3c6ec139	0.014572435
192	0x3f977a9d	1.1834294
193	0x3ef41a44	0.4767629
194	0xbf894db1	-1.0726835
195	0xbf8e3edc	-1.1112933
196	0x3e1a76c8	0.15084374
197	0xbdca959b	-0.09891816
198	0x3e7198e8	0.23593485
199	0x3fb4e4ff	1.4132384
200	0xbf3db218	-0.74099874
201	0xc0675948	-3.6148243
202	0x3f98eccc	1.1947265
203	0x3ec90879	0.39264277
204	0x3f44badb	0.7684762
205	0x3df6b3fd	0.12046049
206	0xbff8be77	-1.9433125
207	0x3f104288	0.5635152
208	0x3f393b0e	0.72355735
209	0x3ebe6a78	0.37190604
210	0x3fa8c3ff	1.3184813
211	0x3faa1562	1.3287776
212	0xbf40d702	-0.75328076
213	0xbf57ff1f	-0.8437366
214	0x3fa1fce7	1.2655305
215	0xbef6d4ff	-0.48209378
216	0x3edd1d3b	0.43186364
217	0x3f173adf	0.59074205
218	0x3ece39ed	0.4027857
219	0x3fd2d7a4	1.6472058
220	0xbee90aef	-0.45516154
221	0x3f1c9963	0.6117155
222	0x3f8f78f3	1.1208786
223	0x40100b17	2.2506769
224	0x3d15e1dc	0.03659235
225	0xbe098d38	-0.13432777
226	0x3f3d66a3	0.73984736
227	0x3eb8b889	0.3607829
228	0x3f817ea6	1.0116775
229	0x3ca86cca	0.020559687
230	0x3f154675	0.58310634
231	0xbd3af342	-0.045642145
232	0x3f439187	0.7639393
233	0x3eb4cb6d	0.35311452
234	0x4097abac	4.739706
235	0x402d0762	2.7035756
236	0x3f6ba695	0.9205106
237	0x3f70f4cb	0.94123524
238	0xbf3d96d0	-0.74058247
239	0x3fa22223	1.2666668
240	0x3f0b7210	0.5447092
241	0x3fa16a0b	1.2610487
242	0xbf98ec90	-1.1947193
243	0x3f961530	1.1725216
244	0x3e0dc104	0.13843161
245	0xbf8e8f1f	-1.1137427
246	0x3f2ea29a	0.6821686
247	0xbfa58820	-1.2932167
248	0xbee4079b	-0.44537053
249	0xbee089e7	-0.4385521
250	0xbe26af52	-0.16277817
251	0xbe50f990	-0.204077
252	0xbf3c8edf	-0.73655504
253	0x3e79e4c3	0.24403672
254	0xbf826a49	-1.0188686
255	0x3f4ef3b6	0.80840623

l1.bias f4 [8]
0	0x3f2b726b	0.6697146
1	0x3f60822c	0.87698627
2	0x3f7b90ed	0.98268014
3	0x3f8ea09d	1.1142765
4	0x3f1c47af	0.6104688
5	0x3f9c6fb0	1.2221584
6	0x3f840986	1.0315406
7	0x3fa97e94	1.3241754

l2.weight f4 [8, 8]
0	0xbf3a6f57	-0.7282614
1	0x403a4e7f	2.911041
2	0xbf02581e	-0.50915706
3	0x3ffb21a7	1.9619645
4	0xbf863476	-1.048476
5	0xbdfa9484	-0.12235358
6	0xbe4783e7	-0.1948391
7	0xbe35e81b	-0.17764322
8	0x3ea172d0	0.31532907
9	0xbfa1c54e	-1.2638338
10	0xc0275cf5	-2.6150486
11	0x3fbfe6a8	1.4992266
12	0x3fec4c32	1.8460753
13	0x3e8df8c1	0.27728847
14	0x3f6ffd15	0.9374555
15	0xbcdef650	-0.02721706
16	0x3faef194	1.3667474
17	0xbfa7551f	-1.3072852
18	0xbfd2c04e	-1.6464937
19	0x3f91a791	1.1379262
20	0x3fdfe854	1.7492776
21	0x3f15826a	0.5840212
22	0x3f489ce7	0.78364414
23	0x3fcc07c0	1.5939865
24	0x3fcac1e5	1.5840422
25	0x3ece7c4f	0.40329215
26	0x402c8c89	2.6960776
27	0x3ce39cd6	0.027784746
28	0x3f2b674b	0.6695449
29	0x3fd88574	1.6915727
30	0x3fa8d450	1.3189793
31	0xbfe734e4	-1.8063016
32	0xbf153d91	-0.5829707
33	0x3fd6f6ec	1.6794105
34	0x3f997faf	1.1992091
35	0x3fb8a637	1.4425725
36	0x3eb24f8c	0.34826314
37	0xbe9d9fbb	-0.30785927
38	0x3fa9c3e2	1.3262904
39	0xbfd6d921	-1.6785012
40	0x3f2f61ba	0.68508494
41	0x400c5967	2.1929567
42	0xbeaa42e9	-0.33254173
43	0xbbe97b94	-0.0071253274
44	0xbe22c5c5	-0.15895756
45	0xbfcd827b	-1.6055444
46	0x4001ac76	2.0261512
47	0x402ffb40	2.74971
48	0x401dd01d	2.4658272
49	0xbecf9889	-0.40546063
50	0x3fa4b196	1.2866695
51	0x3f7d7d9b	0.99019784
52	0x3f86212d	1.0478874
53	0x3f38dbc6	0.7221035
54	0xc0276e80	-2.6161194
55	0x3fca2ffa	1.5795891
56	0xbfb323e4	-1.3995328
57	0xbf960494	-1.1720147
58	0x3f695727	0.9114861
59	0x3f04fc7f	0.5194778
60	0xbf8a7482	-1.0816805
61	0x40435949	3.0523245
62	0x3f94e005	1.1630865
63	0x3fa4e1d7	1.2881421

l2.bias f4 [8]
0	0x3fcdd88d	1.6081711
1	0xbe50278e	-0.20327589
2	0xbec61d90	-0.3869443
3	0xbc9c5fd0	-0.019088656
4	0xbf51c35e	-0.8193873
5	0x3cb00651	0.021487387
6	0x3f91f378	1.1402426
7	0x3f831f96	1.0244014

l3.weight f4 [60, 8]
0	0xbfbc8ed8	-1.4731092
1	0x3f75421e	0.9580401
2	0x3f3b242b	0.7310206
3	0xc03875d7	-2.8821924
4	0xc000c38c	-2.0119352
5	0xbf383fe4	-0.7197249
6	0xbfbad8a0	-1.4597359
7	0x3f4fcdd8	0.8117347
8	0xbda64675	-0.08118907
9	0xbdff5a48	-0.12468392
10	0x3eb6aa1d	0.3567666
11	0xbeb8de06	-0.3610689
12	0xbe77c6ca	-0.24196926
13	0xbdf5a0c6	-0.11993556
14	0xbf0f39be	-0.5594748
15	0xbf36f776	-0.71471345
16	0xc04cfe6e	-3.2030292
17	0xc0a58467	-5.1724124
18	0x3f0c39ca	0.5477568
19	0x3e29ac06	0.16569528
20	0xbfbb8013	-1.464846
21	0x3ea06f5a	0.31334955
22	0xc05deed9	-3.467703
23	0x3fa98627	1.3244065
24	0xbf488f97	-0.783441
25	0xc0363370	-2.8468895
26	0x3ee5fc10	0.4491887
27	0xbf264df6	-0.6496271
28	0xc0b5e981	-5.684754
29	0xc00cdb7d	-2.2008965
30	0x3f8464ae	1.0343225
31	0x3e3a22bc	0.18177313
32	0x40133633	2.300183
33	0xc04f9965	-3.2437375
34	0xc0e311ef	-7.095939
35	0xbf9aa717	-1.2082242
36	0xbef4e317	-0.47829506
37	0xc010acce	-2.2605472
38	0xbee21b42	-0.4416142
39	0x3d5c9328	0.053851277
40	0x3fcfc438	1.6231756
41	0xbf63d374	-0.88994527
42	0xbf12d030	-0.5734892
43	0xbfdcae90	-1.7240772
44	0xbf1d8733	-0.6153442
45	0xc0b1dace	-5.5579596
46	0xbe16c677	-0.14724146
47	0x3f86d35d	1.0533253
48	0xbe833dfb	-0.25633225
49	0xbfe2bd16	-1.7713954
50	0x3ed011f0	0.40638685
51	0xbe31d751	-0.17367293
52	0xbfbefc2c	-1.4920707
53	0xc0be07a1	-5.9384313
54	0x3f3fb536	0.7488588
55	0xbf05c8bb	-0.52259415
56	0x3f9a3c31	1.2049619
57	0xc0eac5fe	-7.336669
58	0x3fd3bc96	1.6541927
59	0xbfd10cf3	-1.6332077
60	0xc080d558	-4.026043
61	0xc0c606ed	-6.1883454
62	0x3e2dc0f0	0.16968131
63	0x3f86b9d3	1.0525459
64	0x3d00ce25	0.031446595
65	0xc0ec7ac7	-7.3899875
66	0xbfa717d7	-1.305415
67	0x3e839cec	0.2570566
68	0xbecacfc1	-0.3961163
69	0xbf97d40e	-1.1861589
70	0x3eb7ba87	0.35884497
71	0x3f08ab63	0.53386515
72	0xbf0b10bc	-0.5432241
73	0xbfc552cf	-1.5415896
74	0x3f6f5163	0.9348356
75	0x3efdcd3a	0.49570638
76	0x3ecad11a	0.39612657
77	0xc0afe38c	-5.4965267
78	0xc0559974	-3.337491
79	0x3f554cee	0.8332051
80	0x3f88e821	1.069584
81	0xbf874c0e	-1.0570085
82	0xbf84c5ae	-1.0372827
83	0xbf6bece7	-0.9215836
84	0x3ee5cf17	0.4488456
85	0xbfdd3277	-1.7281026
86	0xbffbba07	-1.9666146
87	0xbd92187b	-0.071335755
88	0xc0426a2b	-3.03773
89	0xc0b7d99d	-5.745314
90	0xbe04f06a	-0.12982336
91	0x3ea522c0	0.32253075
92	0xc00b946a	-2.1809335
93	0x3f962b1f	1.173191
94	0x3e8fa4ac	0.28055322
95	0xc0b222c7	-5.5667453
96	0xc07e89a1	-3.9771502
97	0xbfa110e8	-1.2583284
98	0x3e0dd7f8	0.13851917
99	0x3f62cf5b	0.8859765
100	0xc0e2b54b	-7.0846305
101	0xbfe8b7d8	-1.8181105
102	0x3f48d0a4	0.7844336
103	0xc00919f5	-2.1422093
104	0xbfcd9b1b	-1.606296
105	0xc026a478	-2.6037884
106	0x3f123850	0.57117176
107	0xbf5fa2ab	-0.87357587
108	0xbf8c55b7	-1.0963658
109	0x3faf17ab	1.3679098
110	0xc08c9797	-4.3935046
111	0xbef3ebc9	-0.47640827
112	0xbf01e259	-0.50736004
113	0xc0e01167	-7.0021243
114	0xbf65a798	-0.8970885
115	0xbf00fd53	-0.5038654
116	0xbfd7f93d	-1.6872936
117	0x3f6bbccf	0.92084974
118	0xc07906f7	-3.89105
119	0x3f97f435	1.1871401
120	0xc07c2a44	-3.9400797
121	0xc000d6ad	-2.0131028
122	0x3e92c3f1	0.28665116
123	0xbf88b096	-1.067889
124	0xc08176a5	-4.045733
125	0x3faed1d0	1.365778
126	0xbe6c5090	-0.23077607
127	0xbf478aa4	-0.77945924
128	0x3f950cb1	1.1644498
129	0xbe9338c6	-0.28754252
130	0x3d5b0008	0.053466827
131	0xbfc99ac5	-1.5750357
132	0xc03adeed	-2.9198563
133	0xbfd1785f	-1.6364859
134	0x3e106ff2	0.14105204
135	0x3f4cb772	0.79967415
136	0xc07c395b	-3.9410007
137	0x3f5e18f1	0.8675681
138	0x3e14c448	0.14528
139	0x3efd9db0	0.4953437
140	0x3e04124b	0.12897603
141	0xbf390c78	-0.7228465
142	0xc0a7030d	-5.2191224
143	0xbf62f57c	-0.8865583
144	0x3e7ac4c9	0.2448913
145	0x3e1cd7b6	0.15316662
146	0x3eae1609	0.34001186
147	0xc0cd604a	-6.418004
148	0xbf8a200b	-1.0791029
149	0x3e4c9f55	0.19982655
150	0x3de5456a	0.1119488
151	0xbf700dea	-0.9377123
152	0xbec2090c	-0.37897527
153	0xc0bcd861	-5.9014134
154	0xc082e2c4	-4.0901814
155	0x3eae8712	0.34087425
156	0x3ed957aa	0.42449695
157	0x3f28b1a5	0.65896064
158	0xc0aa8f13	-5.329965
159	0xbec86a3b	-0.39143547
160	0x3e7c35c1	0.2462988
161	0xbf887684	-1.0661168
162	0x3f08b696	0.53403604
163	0xc0d0b47d	-6.5220323
164	0xbf8ffe51	-1.1249486
165	0x3f80b591	1.005541
166	0xbf3ccec1	-0.7375298
167	0xc0a18750	-5.0477676
168	0xc0b76d17	-5.7320666
169	0xc014ec9f	-2.3269422
170	0xbd97060e	-0.07374202
171	0x3f273f1d	0.6533068
172	0x3e81ee83	0.25377283
173	0xbfa2b3d0	-1.2711124
174	0x3f01fd96	0.50777566
175	0xc056ec5f	-3.358177
176	0xc0ff0153	-7.9689116
177	0x3fe0e7ab	1.75707
178	0x3f879bca	1.0594418
179	0xbf057254	-0.52127576
180	0xc079c668	-3.9027348
181	0xbfca07e2	-1.5783656
182	0xbeadf8ae	-0.3397879
183	0xbfa1f6ce	-1.2653444
184	0xbeaaa168	-0.33326268
185	0x3f8fee59	1.1244613
186	0x3f0bf7a4	0.54674745
187	0xbe9492c2	-0.29018217
188	0x3e8f9779	0.28045252
189	0xc0873447	-4.2251315
190	0xbf7049a0	-0.9386234
191	0x3f1f8c18	0.6232314
192	0xc0d92ca4	-6.7866993
193	0xbf13cb5e	-0.5773219
194	0x3f1b1ccc	0.60590816
195	0xbeab94ee	-0.33512062
196	0xc104104f	-8.253982
197	0xc08cb3e6	-4.3969603
198	0x3e8407db	0.25787243
199	0x3f8bc277	1.0918721
200	0x3e1b6ca7	0.15178166
201	0xbff9694d	-1.948526
202	0xbf358c5b	-0.7091729
203	0x3e25e731	0.16201474
204	0xbf36788a	-0.7127768
205	0xbf8bf3e7	-1.0933808
206	0xc09358c4	-4.6045856
207	0x3f4a5fcb	0.7905242
208	0xbe9bcbd2	-0.3042894
209	0xc0772d5e	-3.862144
210	0x3ec8239c	0.39089668
211	0xbe0a1180	-0.13483238
212	0xbfb84bf2	-1.4398177
213	0x3dca3f7b	0.09875389
214	0xbe8c05c3	-0.27348146
215	0x3f0f5481	0.5598832
216	0xc0315c71	-2.7712672
217	0xc04bee92	-3.1864362
218	0xbf14a06a	-0.5805727
219	0x3fadf42f	1.3590144
220	0xbeaba690	-0.33525515
221	0x3ee6f0ed	0.45105687
222	0xbfc3b480	-1.5289459
223	0xc008f12c	-2.13972
224	0x3f62ce8a	0.88596404
225	0xc0d2c9e8	-6.5871468
226	0xc080b6eb	-4.022329
227	0xbfa0e966	-1.2571228
228	0xbed327e7	-0.4124138
229	0xbd1fdccf	-0.03902894
230	0x3f450f66	0.7697662
231	0xbe8d44ca	-0.27591544
232	0xbea81d51	-0.32834867
233	0xc0b5b39c	-5.678175
234	0x3e43fde2	0.19139817
235	0xbdfb763c	-0.12278411
236	0xc0da88ca	-6.829198
237	0xbef12862	-0.47101122
238	0x3f6697da	0.9007546
239	0xbf36785e	-0.71277416
240	0x3fae2f24	1.3608136
241	0xc0afca0c	-5.493414
242	0xc0c6c3b8	-6.2113914
243	0xbe97f4a5	-0.29678836
244	0x3e9af468	0.30264592
245	0xbe7e8983	-0.24857144
246	0xbecfaef4	-0.40563166
247	0xc0bc7d9a	-5.890332
248	0xc0637295	-3.5538685
249	0xc00a9c95	-2.165807
250	0xc07a3507	-3.9094865
251	0x3f67d9ae	0.9056653
252	0xbf14f151	-0.5818072
253	0xc09fd098	-4.994213
254	0x3f8c4619	1.0958892
255	0xbfbfba90	-1.4978809

l3.bias f4 [60]
0	0xc003c292	-2.0587506
1	0xbef40e30	-0.47667074
2	0x3d8adf82	0.06780912
3	0xbf841e49	-1.0321742
4	0xbfec4408	-1.8458261
5	0xbf3868d5	-0.7203496
6	0xbf462acc	-0.7740905
7	0xbebac57b	-0.3647879
8	0xbe186964	-0.14883953
9	0xbf57cb8b	-0.84294957
10	0xbf5f66b7	-0.87266105
11	0x3dafd0c2	0.08584739
12	0x3dc6564c	0.096844286
13	0x3e60b2bf	0.21943186
14	0xbeca7a52	-0.39546448
15	0xbfb624b7	-1.4229954
16	0x3df57ed6	0.11987083
17	0xbf439607	-0.764008
18	0xbe9aed29	-0.30259064
19	0xbf2c0908	-0.6720128
20	0xbf8aa422	-1.0831339
21	0xbe2d4340	-0.16920185
22	0xbf5d7283	-0.86502856
23	0xbf865560	-1.0494804
24	0x3e62bffc	0.22143549
25	0xbf17e02c	-0.59326434
26	0x3f3227d3	0.69592017
27	0x3decaeb5	0.1155676
28	0xc04207b1	-3.0317194
29	0x3e137f04	0.14403921
30	0x3d0b04c9	0.03394011
31	0xbd9991c6	-0.07498507
32	0x3d26b645	0.04070117
33	0xbf0b26d0	-0.543561
34	0x3dc5e000	0.09661865
35	0xbf922d15	-1.1420008
36	0x3ee84ab6	0.453695
37	0x3e3193f4	0.17341596
38	0x3f213b28	0.6298089
39	0x3f078cb5	0.52949077
40	0x3dd70b56	0.10500209
41	0x3d9a5438	0.07535595
42	0x3e003060	0.12518454
43	0x3e0c455e	0.13698336
44	0xbfbc7790	-1.4723988
45	0x3d0fe7a5	0.035133023
46	0xbf8a98c8	-1.0827875
47	0xbd36f395	-0.04466589
48	0xbe26f712	-0.16305187
49	0x3bbf4816	0.0058374507
50	0xbeb3ee32	-0.35142666
51	0x3db73774	0.08946124
52	0xbff66f34	-1.9252687
53	0xbfcad2b8	-1.5845556
54	0xbf1ccb2c	-0.61247516
55	0xbf4dff2a	-0.80467474
56	0xbdd63b6c	-0.104605526
57	0xbe9bb89f	-0.30414292
58	0xbe229bf0	-0.15879798
59	0xbec352d7	-0.3814914
